self-super-std20-nonsen-27ep-weight-2.npy (npy, 72128 bytes, 1 tensors)

array f4 [150, 120, 1, 1]
000000 55 67 5d bd f2 f9 47 be 45 e2 e1 3d b5 e3 02 be
       -0.054053623 -0.1952894 0.110294856 -0.12782176
000010 3d 51 be bd 52 df 13 be aa 0c b1 bc 43 26 a2 bd
       -0.09292839 -0.14440659 -0.021612484 -0.07917454
000020 de 71 91 3e b1 43 14 3e c2 49 0b be 4b 1c 57 3e
       0.28407186 0.14478947 -0.13602355 0.21006887
000030 78 f9 2d 3e 61 c2 39 3d be 39 3d bd cb 3a 55 3e
       0.16989696 0.04535139 -0.046197645 0.20823209
000040 08 40 e8 bd 98 27 54 3c 47 42 9f 3d ab 5e 45 3c
       -0.11340338 0.012948893 0.07776313 0.012046496
000050 d0 d6 78 3d dc 14 95 3d f2 89 0b bd 51 ed 87 bb
       0.060751736 0.07279369 -0.0340671 -0.0041481634
000060 3e fe 94 3b 74 71 0a be c6 ac 1d bd aa 60 94 3e
       0.0045469096 -0.13519841 -0.038494848 0.2898
000070 c2 91 99 3d 2f f9 9d 3b 3f 07 9f 3e eb 02 73 bc
       0.07498504 0.0048209648 0.31060216 -0.014832239
000080 2c b8 ea 3d 56 0c 61 bd 34 98 a9 bd dd c9 a6 3d
       0.11460909 -0.054943405 -0.082809836 0.08143971
000090 12 8c 21 3e 38 c3 0a bd 69 ff 3c 3c c6 db 0a 3e
       0.15776089 -0.03387758 0.011535504 0.135604
0000a0 fb c2 1b 3e 2b 51 9d 3d 6a 45 ef 3d 69 58 f2 bc
       0.15211098 0.07681497 0.116831616 -0.029583173
0000b0 a1 1b 12 bd e6 e5 1a 3c 5f 88 85 be e8 8a 10 3d
       -0.03567088 0.009454226 -0.26080605 0.03528872
0000c0 51 0a e6 3b b9 94 17 3d 88 79 b5 3d 90 c0 c6 bb
       0.007020273 0.037007067 0.08861071 -0.0060654357
0000d0 f1 9c 82 3d ff 74 e0 3d 2b 51 17 be 6f 2d a4 3e
       0.063775904 0.10959815 -0.14777057 0.32065913
0000e0 a9 95 1a 3e 99 0c 8a 3b 10 ac 07 bc 32 be 81 bd
       0.15096153 0.0042129275 -0.008280769 -0.06335105
0000f0 c3 f9 8f bd b8 c7 bd bd 04 43 05 3e 13 c2 14 be
       -0.0703006 -0.09266609 0.13013846 -0.14527158
000100 ee 68 6d 3e 64 bb 48 bd 91 30 3a 3d 1f d2 85 bd
       0.23184559 -0.049006835 0.045456473 -0.06534218
000110 ef 1b 42 be f5 26 a0 3d ef 62 94 3d a1 21 bf 3d
       -0.18955968 0.078199305 0.072454326 0.09332586
000120 15 00 b4 3c c2 f9 30 3d 66 2a dd bc 08 14 80 3d
       0.021972695 0.043206938 -0.026997756 0.06253821
000130 83 ef 4b bd 06 c3 bb 3c 56 a6 2f 3e f9 81 17 3e
       -0.049788963 0.022920143 0.17153296 0.14795674
000140 74 59 19 be 29 74 08 3e af 5a 9a 3c 23 4e 18 3e
       -0.1497553 0.13325562 0.01884207 0.14873557
000150 56 b3 fa bd 95 91 85 3e 1e 4f 98 3d ea 97 20 3e
       -0.12241237 0.26087633 0.074369654 0.1568295
000160 8b 68 b8 3d 9c 2d 7d bd 95 0f a7 3c 2f b0 9e 3d
       0.09004315 -0.061811075 0.020393172 0.07748448
000170 32 85 d3 3d f4 ec a4 bc 0e 02 78 38 31 6c 5a 3e
       0.10328139 -0.02013252 5.912972e-05 0.21330334
000180 9a 1a 2b bd c0 1e 0a be b4 08 72 bd 57 f7 a3 bd
       -0.041773416 -0.13488293 -0.05909033 -0.08006161
000190 d2 fa ac bd dc 6a 8b bd 74 70 09 be 8f 5f ff b9
       -0.08446278 -0.06807491 -0.13421804 -0.00048708587
0001a0 ae 5b 32 3d c1 7f 27 be c2 6c bf bc 72 00 0a be
       0.043544464 -0.16357328 -0.02336729 -0.13476732
0001b0 65 59 db 3c 9c 35 81 3d 7b ad c6 bd cf 3d 0a 3e
       0.026776025 0.06309053 -0.097010575 0.1350014
0001c0 3a 3d 75 be 58 5e b9 bd 96 b2 43 be d3 75 ae 3d
       -0.23949137 -0.09051198 -0.19111094 0.08518567
0001d0 20 0d 61 bd cf cb f6 3d 16 fb 9f 3a 9e c6 25 be
       -0.054944158 0.12050592 0.0012205567 -0.16189048
0001e0 80 ca 1d 36 5c 12 72 3e 12 dc 1e 40 ac c6 4b b9
       2.3512694e-06 0.23639816 2.482182 -0.000194336
0001f0 2b 13 44 bb 57 aa d0 b8 c6 35 98 b9 92 90 98 bd
       -0.0029918652 -9.949941e-05 -0.00029031764 -0.074494496
000200 f5 1e 3f 3d 9d bd 0e 3a 15 20 db bc 90 29 1d b9
       0.046660382 0.00054451247 -0.026748696 -0.0001498817
000210 72 c1 32 b9 90 71 aa bc c1 d6 0f b9 63 e6 bd b9
       -0.00017047467 -0.020806104 -0.00013717545 -0.0003622054
000220 cb b4 14 3f f1 6d 19 3a 1b ae e5 b9 51 96 64 3b
       0.5808837 0.00058528694 -0.00043808002 0.0034879635
000230 f6 0b 1b 38 96 9b b3 38 65 98 0a b9 80 f3 1b ba
       3.696602e-05 8.564365e-05 -0.00013217477 -0.0005949065
000240 17 42 30 3a df 23 4f bd 97 a1 35 3e c0 1f e0 bd
       0.00067237153 -0.05057132 0.17737423 -0.10943556
000250 0a 20 8b b8 d7 eb ca c0 8d 10 06 3d 64 d7 69 39
       -6.634004e-05 -6.341289 0.032730628 0.00022300851
000260 97 1e 1d 3c 34 b0 5c be 12 28 35 b7 24 fa d6 37
       0.009589813 -0.21551591 -1.079777e-05 2.5627269e-05
000270 ee a8 c8 37 9c b8 95 b9 9c 79 f6 b9 e0 9d 94 b9
       2.3920522e-05 -0.0002855704 -0.00047011382 -0.00028346386
000280 30 9e a8 37 83 26 ae 39 2e a9 27 b9 ee eb bb 38
       2.0100822e-05 0.0003321656 -0.00015989385 8.9608e-05
000290 26 9a da 3d 98 26 b3 c0 83 8c 35 39 7a 01 f0 38
       0.10673933 -5.598461 0.0001731385 0.00011444367
0002a0 b2 f2 55 39 07 1e bf bd c1 3a 5a 3f 3b 96 76 3e
       0.00020403674 -0.09331899 0.852459 0.24080746
0002b0 49 ef 47 be 45 12 16 bc 29 df 2c be 08 8a d0 b9
       -0.19524874 -0.009159629 -0.16882004 -0.00039775693
0002c0 13 5b ce 3e 26 73 45 40 52 4d d9 3d ae ab f9 bc
       0.4030386 3.085153 0.10610451 -0.030477371
0002d0 6a 43 96 b9 13 9e a3 38 f4 e9 31 39 d6 48 ff 37
       -0.00028660457 7.801889e-05 0.0001696719 3.0432286e-05
0002e0 c6 ac 31 3e ea 68 55 bd 9e 00 90 b9 9a 3f e8 39
       0.17351064 -0.052102007 -0.0002746628 0.00044297875
0002f0 bc 38 ce b9 67 39 c8 b8 e4 0b 82 3e 5e b5 55 40
       -0.00039333652 -9.547435e-05 0.25399697 3.3391948
000300 dc a1 b0 38 2e 0f 61 38 9d 49 7b 3e b3 91 9e 3d
       8.422483e-05 5.3658317e-05 0.245398 0.07742634
000310 12 d8 ff 3c bf de 09 bd d8 b5 60 39 e7 41 5d 3d
       0.03123096 -0.033659693 0.00021430047 0.054017927
000320 8e 05 a8 3f 4c 32 29 40 d1 f8 64 3e 2c 27 30 39
       1.3126695 2.6436949 0.22360541 0.0001679926
000330 8b b5 dd b9 79 fd fc b8 e6 12 8b 39 20 72 ad b9
       -0.00042287665 -0.00012063509 0.00026526226 -0.0003308216
000340 19 19 ef bd 4f c2 0d be 80 a7 8f 3d 18 6f ac 3d
       -0.11674709 -0.13843654 0.0701437 0.08419627
000350 c0 74 31 b5 be e7 54 b9 df 5a 2d be cc bd e9 bd
       -6.610753e-07 -0.00020304226 -0.16929196 -0.11413154
000360 bc 3a 5d 39 b8 26 94 3d a8 58 94 38 3f 9d 5b 39
       0.00021098083 0.072339475 7.0737035e-05 0.00020944046
000370 65 83 44 3d 18 cf b5 38 11 af 72 40 71 54 af bd
       0.04797687 8.669327e-05 3.7919352 -0.08561028
000380 18 b3 f3 b8 53 03 9b bf 12 db c0 b7 fa 7b d9 3d
       -0.00011620502 -1.211039 -2.2990196e-05 0.1061935
000390 72 09 9c bd 66 92 8f bd d9 49 df 3e 14 03 1e 39
       -0.07618989 -0.07010345 0.4361103 0.00015069201
0003a0 e0 9d 59 37 02 f1 f2 b8 3e e7 a4 bd aa 47 56 bd
       1.2970966e-05 -0.000115843504 -0.080519184 -0.052314438
0003b0 0d 2a d0 bd c1 2e e0 38 df 52 17 be dc c4 8f 39
       -0.101642706 0.00010689861 -0.14777707 0.00027421757
0003c0 97 54 be b9 3b bc d3 3a 5d 59 17 40 0d ca dd 38
       -0.00036302648 0.001615412 2.3648293 0.00010575736
0003d0 68 eb 88 3a 94 47 af 37 a8 6e 97 38 dd 52 68 bd
       0.0010446133 2.0894957e-05 7.2208524e-05 -0.05671965
0003e0 36 f6 38 be a9 2d e1 b9 b1 45 2b 3e dd 73 4b 38
       -0.18062672 -0.00042949364 0.16725804 4.8506878e-05
0003f0 19 b2 38 ba 4b fd 9e 3c d0 95 bd b9 62 7f c9 b9
       -0.00070455816 0.019407889 -0.00036160508 -0.00038432615
